Zero-DCE/model_trained/model.tflite (tflite, 95456 bytes, 14 tensors)

convLayer6_bias f4 [32]
0	0x3cd4c6d0	0.025973707
1	0x3cc8c939	0.024510013
2	0x3d075041	0.03303552
3	0xbb973bd5	-0.004615287
4	0x3ccc8115	0.024963895
5	0xa23c0c16	-2.548515e-18
6	0x3c4d707d	0.012539026
7	0x3cf419a3	0.02979738
8	0xb991a55a	-0.00027779752
9	0x3ccc742f	0.024957744
10	0x3cd97d75	0.02654908
11	0xb008c88c	-4.9761506e-10
12	0x3ccb5996	0.024822991
13	0xbba2ea40	-0.0049717724
14	0xba0b39bf	-0.0005311034
15	0x3d247c62	0.040157683
16	0xba91af60	-0.0011114888
17	0xbb4fc64e	-0.0031703892
18	0x3caf2665	0.021380613
19	0xb2cd4de9	-2.390057e-08
20	0x3c8c91d2	0.017159376
21	0xbc68e17f	-0.014213919
22	0x3c26a376	0.010170808
23	0x90374057	-3.6139952e-29
24	0x3d1cd3c8	0.038287908
25	0x3c3b46c5	0.011430447
26	0x3c146691	0.009057657
27	0x3cc199ae	0.02363285
28	0x3ce888df	0.028385578
29	0xbba69a02	-0.005084277
30	0x3d113cb0	0.035458267
31	0xbbf67f47	-0.007522497

convLayer5_bias f4 [32]
0	0x3ccba54a	0.02485909
1	0x3c05c53b	0.008164699
2	0x3ca96032	0.020675752
3	0x3b65e8dc	0.0035081422
4	0xba5a5da5	-0.0008329994
5	0x3cbd6864	0.023121066
6	0x3b1ebcaf	0.002422135
7	0xbc11ed03	-0.008906606
8	0x80a39d1b	-1.5025545e-38
9	0xb2c51eb0	-2.2947773e-08
10	0x3c916bad	0.01775154
11	0x3c89f919	0.016842412
12	0x39bb9cbf	0.00035784204
13	0x3cf4a53e	0.02986395
14	0x05ec980a	2.2249184e-35
15	0x3c9268ae	0.01787218
16	0x3cb12984	0.021626242
17	0xb10511e1	-1.936421e-09
18	0x3b7eb18a	0.0038863146
19	0x309b9d36	1.1322416e-09
20	0x3bfcae18	0.0077111833
21	0xaa139b09	-1.3110011e-13
22	0xb0994a23	-1.1153286e-09
23	0x3ca097df	0.019603668
24	0x3ca8fd5d	0.020628626
25	0x3c0f3ed5	0.008743008
26	0x3cf3c53a	0.02975713
27	0xb9d402fc	-0.00040438015
28	0x3c0be452	0.0085383225
29	0x3ca55ad8	0.02018492
30	0x3ad8bed2	0.0016536361
31	0x3ce4de3e	0.027938005

convLayer4_bias f4 [32]
0	0xb896967d	-7.180588e-05
1	0x3b0c8fec	0.0021448089
2	0x3c90cf25	0.0176769
3	0x3c85eb7f	0.016347645
4	0x3d030b77	0.031993356
5	0xb2cee212	-2.4084361e-08
6	0xa3d16d8b	-2.2706219e-17
7	0xb7ac6905	-2.0552901e-05
8	0x3bcd40d9	0.006263834
9	0x8d158711	-4.607675e-31
10	0x3c113bc6	0.008864349
11	0x3cf8572f	0.03031501
12	0x3c7b7069	0.015346625
13	0x3bdb6a6e	0.006696037
14	0xba9f055b	-0.0012132333
15	0x3b3cd1b9	0.0028811528
16	0x3af16a24	0.0018418473
17	0xb01220e8	-5.3161253e-10
18	0x3bcf226d	0.0063212425
19	0x3c6683ba	0.014069492
20	0x9ea3e7e3	-1.7354202e-20
21	0x3ab9a41a	0.0014163286
22	0x3cba63c9	0.02275266
23	0x3c023212	0.007946508
24	0x3cec3610	0.028834373
25	0xbb23abd1	-0.0024974237
26	0x3c37f44e	0.01122768
27	0xa3420c4d	-1.0519366e-17
28	0x3cb2e9e7	0.021840049
29	0x3c351794	0.011052985
30	0xade3b7c7	-2.5888526e-11
31	0x3881eefc	6.195714e-05

convLayer3_bias f4 [32]
0	0x3d078190	0.033082545
1	0x3c544e58	0.012958132
2	0x3d46f61b	0.04857455
3	0x3bdf0470	0.006805949
4	0x3cb618b2	0.022228573
5	0xbc170703	-0.00921798
6	0x3cb7a511	0.022417577
7	0x3c9cc545	0.019137034
8	0x3bddf63b	0.0067737377
9	0xbbf89cd8	-0.0075870566
10	0xbc538a63	-0.012911412
11	0x3bca1b33	0.006167793
12	0x3cc974c5	0.024591813
13	0x3cc0b5d2	0.023524199
14	0x3c487d05	0.012236838
15	0x3cea5705	0.028605947
16	0xb8500103	-4.9592007e-05
17	0xbad79126	-0.0016446456
18	0x3caa4190	0.020783216
19	0x3bdcdd40	0.0067402422
20	0xbbbcb6db	-0.0057591028
21	0xbae916a1	-0.0017783233
22	0xbbfc87f1	-0.007706635
23	0xb1500e84	-3.0276235e-09
24	0xbc0f88c6	-0.008760637
25	0xaaabeff7	-3.054221e-13
26	0x3c9f1ba0	0.019422352
27	0x3d4dca79	0.05024192
28	0xbc77411d	-0.015091208
29	0x3c06c40a	0.00822545
30	0x3d502d08	0.050824195
31	0xa7555184	-2.9603878e-15

convLayer2_bias f4 [32]
0	0x3c6dda7d	0.014517424
1	0x3c97926d	0.018502438
2	0xb80bfc2c	-3.3375036e-05
3	0x3cb3e864	0.021961398
4	0xb8e00e20	-0.00010683783
5	0x3d2d4563	0.0423025
6	0x3d135175	0.035966355
7	0x3c6528a5	0.013986741
8	0xbc9a115d	-0.018807108
9	0xbd2edab5	-0.042689044
10	0x3c627e6c	0.013824087
11	0x3d63bd22	0.055600293
12	0xbd360509	-0.044438396
13	0xbd4ad2a6	-0.049517296
14	0xaff315cb	-4.4216927e-10
15	0xbbb9cfec	-0.005670538
16	0xbb2acdb4	-0.002606255
17	0x3c1e6ced	0.009669525
18	0xbc6ecd69	-0.014575341
19	0xbc7530da	-0.01496526
20	0xb71c0d3a	-9.301404e-06
21	0x3d228fdb	0.039687973
22	0xba950965	-0.0011370598
23	0x3c592472	0.013253318
24	0x9465ee49	-1.1608539e-26
25	0xbc1987c4	-0.009370748
26	0x3d85145a	0.064980224
27	0x3cda66bb	0.026660314
28	0x3adf2f39	0.0017027623
29	0xbc7446bd	-0.014909443
30	0x3c140b9b	0.00903597
31	0xb812ceb8	-3.5001634e-05

convLayer1_bias f4 [32]
0	0x3dca862c	0.098888725
1	0x3d27b058	0.04093966
2	0x3e0c48a3	0.13699584
3	0x3dd40bcb	0.10353812
4	0x3df23010	0.118255734
5	0x9fe369f8	-9.631355e-20
6	0xba67772d	-0.0008829709
7	0x3d95fd79	0.07323737
8	0x3e08105b	0.13287489
9	0x92aa2edd	-1.0740061e-27
10	0xbe345f03	-0.17614369
11	0xbb128d10	-0.0022361912
12	0xb94af957	-0.00019357108
13	0x3d024d5c	0.031812057
14	0xbc21121c	-0.009830978
15	0x3df1d092	0.1180736
16	0x3d5e54c8	0.054280072
17	0x3e0d1651	0.13778044
18	0x3d7416eb	0.05959217
19	0x3cc3c86d	0.023899281
20	0xbd0e468d	-0.03473525
21	0xa4a0b9e9	-6.970388e-17
22	0xb9948453	-0.0002832735
23	0x3d2cdc03	0.042202007
24	0x3dfe3d99	0.124140926
25	0x8677f4b7	-4.6635325e-35
26	0x36b41ef7	5.368023e-06
27	0xb813fee5	-3.528492e-05
28	0x3d0fbef5	0.03509422
29	0x3e0894c8	0.13338006
30	0x3d5ef289	0.05443052
31	0x3e0b5a36	0.13608631

std.constant1 f4 [32, 3, 3, 3]
0	0xbd0be88d	-0.034157325
1	0xbd2c2807	-0.04203036
2	0x3c234303	0.009964707
3	0xbbc30d02	-0.0059524784
4	0xbd34e4d8	-0.044163555
5	0x3cef6153	0.029221212
6	0xbb44a1d5	-0.0030003686
7	0xbcb7e86c	-0.022449695
8	0x3d2e6505	0.04257681
9	0xbc36547d	-0.011128542
10	0xbd23e34e	-0.040011697
11	0x3c339add	0.010962215
12	0xbc06fb59	-0.008238637
13	0xbc5177a3	-0.012784871
14	0x3c67adb1	0.014140532
15	0x3a554bbf	0.0008136592
16	0xbbef1488	-0.0072961487
17	0x3d661a77	0.056177583
18	0xbd84528e	-0.064610586
19	0xbd48d650	-0.04903251
20	0x3c959005	0.01825715
21	0xbcb9a283	-0.0226605
22	0xbcd462cb	-0.025926014
23	0x3c868e4e	0.016425278
24	0xbd8367f0	-0.06416309
25	0xbda28741	-0.07935954
26	0xbc9aaf42	-0.018882398
27	0x3c3a5fc1	0.011375369
28	0x3c8515f7	0.016245825
29	0xbc9b7246	-0.018975388
30	0xbc2649c0	-0.010149419
31	0xbbc8038d	-0.006103939
32	0xbc4ac20b	-0.012375365
33	0x3d1bb9e2	0.03801907
34	0xbc5f0261	-0.013611407
35	0x3ba48002	0.0050201425
36	0xbc3323d7	-0.010933838
37	0x3bf495d8	0.007464152
38	0xbcabef73	-0.020988202
39	0xbca860c3	-0.020553952
40	0xbce4c20a	-0.027924556
41	0xbd0c79a3	-0.03429569
42	0x3c56cc41	0.013110221
43	0xbb846903	-0.0040408387
44	0x3b39dda2	0.0028360863
45	0x3d52277a	0.05130718
46	0x3d34f76f	0.044181284
47	0xbbe9fd6b	-0.0071408055
48	0xbc0727f7	-0.008249274
49	0x3b90f3a0	0.0044235736
50	0xbc75ad85	-0.014994984
51	0x3cba7773	0.022762036
52	0xbb3a359a	-0.0028413297
53	0xbc14d31d	-0.009083536
54	0xbb8c05f2	-0.0042731697
55	0xbb80c14a	-0.003929292
56	0xbc68f53d	-0.014218626
57	0x3a1b9841	0.00059354684
58	0x3c4cedd2	0.012507873
59	0xbca2265c	-0.019793682
60	0x3b766c4b	0.0037601169
61	0x3b092d74	0.0020931633
62	0x3bd9dde3	0.0066487654
63	0xbc35a89a	-0.011087561
64	0x3ba58ea8	0.0050524063
65	0xbcad36da	-0.02114432
66	0x3c9b2027	0.01893623
67	0x3aa46ed0	0.0012545232
68	0xbab26b47	-0.0013612293
69	0xbbb748b2	-0.0055933828
70	0x3c76b16f	0.015056952
71	0xbc0d3523	-0.008618626
72	0xbc8898f9	-0.016674506
73	0xbd115366	-0.035479926
74	0xbae915d4	-0.0017782995
75	0x3c443f3d	0.011977968
76	0xbc818eea	-0.015815217
77	0xbc0da642	-0.008645596
78	0xbcf79dca	-0.030226607
79	0xbcd23d64	-0.025664039
80	0x3c1f0534	0.00970583
81	0xbd22e1f5	-0.03976627
82	0xbd2d782e	-0.04235094
83	0x39250c0e	0.00015740117
84	0xbcd9fbd8	-0.026609346
85	0xbd237a20	-0.03991139
86	0xbc02f81a	-0.007993722
87	0x3c81d8ce	0.01585045
88	0xbacbd586	-0.0015551306
89	0x3cc1d826	0.023662638
90	0x3b95c117	0.0045701372
91	0xbc98e22e	-0.018662538
92	0x3baa59bb	0.005198685
93	0x3b012c1e	0.0019710134
94	0xbc8f959f	-0.0175274
95	0xbcdbec96	-0.026846211
96	0x38cc3937	9.738135e-05
97	0x3bf4aabb	0.0074666417
98	0xb72da548	-1.0350086e-05
99	0x3cc41b11	0.023938688
100	0x3b954c6f	0.0045562307
101	0x3c3e9ca5	0.011634027
102	0xbb31ad94	-0.0027111517
103	0xbbb4f680	-0.005522549
104	0xbc90064f	-0.017581133
105	0x3cb358a1	0.021892847
106	0x3c925a0b	0.017865201
107	0xbb3e46cd	-0.00290339
108	0xbb1a7fb9	-0.0023574664
109	0xbc7f49a2	-0.01558152
110	0x3afbca3d	0.0019210052
111	0x3c02de12	0.007987516
112	0xbbc7792b	-0.0060874424
113	0xba9426f4	-0.0011303113
114	0x3c766bc5	0.015040343
115	0xba2abcbc	-0.0006513109
116	0x3c3b9d42	0.011451067
117	0xbcbfd1b8	-0.023415431
118	0xbcd82df1	-0.026389094
119	0xbc137468	-0.008999921
120	0xbd0ce4fc	-0.034398064
121	0xbc38355f	-0.011243193
122	0xba95a8ce	-0.0011418106
123	0x39c5a6e6	0.00037699117
124	0xbc13e2c1	-0.00902623
125	0xbbe7778f	-0.007063813
126	0x3bfb62e5	0.0076717013
127	0xbc3e1e54	-0.0116039105
128	0x3bff911e	0.0077992817
129	0xbadb4217	-0.001672807
130	0xbc1a9df6	-0.009437075
131	0xba9a8112	-0.0011787734
132	0xb9fe5390	-0.00048508914
133	0xbb73f1ee	-0.0037223059
134	0x3bb87722	0.005629436
135	0x00098542	8.74323e-40
136	0x8000401d	-2.3e-41
137	0x8000abfd	-6.1698e-41
138	0x0009b5e7	8.91774e-40
139	0x80007079	-4.0348e-41
140	0x8000430c	-2.4052e-41
141	0x000a0ee9	9.23704e-40
142	0x800045e1	-2.5068e-41
143	0x80008e60	-5.1075e-41
144	0x0009e727	9.09441e-40
145	0x80006297	-3.5367e-41
146	0x8000b2ff	-6.4212e-41
147	0x0008558f	7.65377e-40
148	0x800099bd	-5.5151e-41
149	0x800030f5	-1.7562e-41
150	0x000a0ea6	9.2361e-40
151	0x80005cce	-3.3292e-41
152	0x8000bcb5	-6.7695e-41
153	0x0009be2c	8.9474e-40
154	0x8000604f	-3.4549e-41
155	0x8000a701	-5.991e-41
156	0x0007a8e4	7.03435e-40
157	0x800095d4	-5.3748e-41
158	0x80004a8a	-2.674e-41
159	0x0009be1f	8.94722e-40
160	0x80006875	-3.7472e-41
161	0x8000991b	-5.4924e-41
162	0xb61066ee	-2.1517585e-06
163	0xb49898ff	-2.8423526e-07
164	0xb0343f46	-6.5573535e-10
165	0xb60a4a4c	-2.060685e-06
166	0xb491f002	-2.7182983e-07
167	0xb029df8a	-6.179951e-10
168	0xb6031977	-1.9535344e-06
169	0xb4881e3a	-2.5353967e-07
170	0xb024dde6	-5.997819e-10
171	0xb621fd69	-2.4138374e-06
172	0xb4b356c2	-3.3404473e-07
173	0xb0526c0b	-7.6551093e-10
174	0xb61d2c40	-2.342058e-06
175	0xb4af3fd8	-3.2642743e-07
176	0xb048ae93	-7.300766e-10
177	0xb616df57	-2.2481743e-06
178	0xb4a7906d	-3.1211258e-07
179	0xb0449efb	-7.153031e-10
180	0xb61c970a	-2.3333728e-06
181	0xb4a92162	-3.1502992e-07
182	0xb04493b2	-7.151427e-10
183	0xb618b8fd	-2.2757442e-06
184	0xb4a6edec	-3.109302e-07
185	0xb03d88fe	-6.8952477e-10
186	0xb612defa	-2.1885485e-06
187	0xb4a12104	-3.001261e-07
188	0xb03a6287	-6.780642e-10
189	0x3cfb5f7d	0.03068518
190	0xb8bb117d	-8.920112e-05
191	0x3c5ca403	0.013466838
192	0x3c88b91d	0.016689831
193	0xbc4e28ce	-0.012582971
194	0xbc179749	-0.009252378
195	0x3adeac73	0.001698865
196	0xbcec0e66	-0.02881546
197	0xbb19b694	-0.0023454772
198	0x3c68db2d	0.014212412
199	0x3ca63ac4	0.020291694
200	0xba7db52e	-0.0009678182
201	0x3c46c527	0.012131966
202	0x3c56bde5	0.013106798
203	0xbc7548be	-0.014970956
204	0x3c16c7df	0.009202926
205	0xbcd88f31	-0.026435466
206	0xbc0aca78	-0.008471124
207	0xbbaaa53d	-0.005207686
208	0xbcd9ead1	-0.026601227
209	0xbc79605c	-0.015220728
210	0x3b9694d9	0.0045953807
211	0xbbf64b62	-0.0075163106
212	0xbba4909a	-0.0050221207
213	0xbc3d3b77	-0.011549822
214	0xbcf58cbb	-0.029974332
215	0xbc99e007	-0.018783582
216	0xbcb84b57	-0.022496862
217	0x3cc99a7a	0.024609793
218	0xbc478120	-0.012176782
219	0x3b95427f	0.004555046
220	0xbcb5f569	-0.022211747
221	0xbbe96cc3	-0.007123561
222	0x3b3f554d	0.002919513
223	0xba9efa32	-0.0012129007
224	0x3aad2f1e	0.0013212895
225	0x3ab7a4d0	0.001401091
226	0xbcb02c3a	-0.021505464
227	0xbbc6c21e	-0.006065621
228	0xbc523b0a	-0.012831459
229	0xbaab9579	-0.0013090811
230	0xbc7fb604	-0.015607361
231	0x3c148874	0.009065736
232	0xbbd57d8d	-0.006515211
233	0xbc2ac823	-0.010423693
234	0xbba7d863	-0.005122231
235	0x3bd9a6ac	0.0066421833
236	0xba8127bd	-0.0009853762
237	0x3b3ca2c9	0.002878355
238	0xbc3ef2e4	-0.011654589
239	0xbc3290e7	-0.010898805
240	0x3bdf35eb	0.0068118474
241	0xbd10c0cc	-0.035340115
242	0xbcd28a36	-0.02570067
243	0x913afd1e	-1.475081e-28
244	0x91c2553b	-3.066033e-28
245	0x90e7faa0	-9.1499584e-29
246	0x9137e5aa	-1.4506925e-28
247	0x91c156d9	-3.0503555e-28
248	0x90e4daa6	-9.0267024e-29
249	0x91344e4e	-1.4223626e-28
250	0x91c1830d	-3.0530797e-28
251	0x90bd8a25	-7.47602e-29
252	0x9143fc0f	-1.5460459e-28
253	0x91c713d2	-3.140888e-28
254	0x90ef0b76	-9.4286537e-29
255	0x913f1e51	-1.5076585e-28

std.constant2 i1 [32, 3, 3, 32]
0	0x00	0
1	0xec	-20
2	0xac	-84
3	0xf1	-15
4	0xbe	-66
5	0x00	0
6	0x00	0
7	0xf5	-11
8	0xe8	-24
9	0x00	0
10	0x0f	15
11	0xef	-17
12	0x00	0
13	0x03	3
14	0xd9	-39
15	0x1b	27
16	0xeb	-21
17	0x4d	77
18	0x39	57
19	0xf7	-9
20	0xf2	-14
21	0x00	0
22	0x00	0
23	0xf4	-12
24	0x07	7
25	0x00	0
26	0x72	114
27	0x47	71
28	0xce	-50
29	0x21	33
30	0xf3	-13
31	0xd4	-44
32	0xf0	-16
33	0xd8	-40
34	0xa0	-96
35	0xe0	-32
36	0x9f	-97
37	0x00	0
38	0x00	0
39	0xbc	-68
40	0x16	22
41	0x00	0
42	0x1f	31
43	0x0e	14
44	0x00	0
45	0xf8	-8
46	0x9f	-97
47	0x0a	10
48	0xc4	-60
49	0xeb	-21
50	0x25	37
51	0x2e	46
52	0x06	6
53	0x00	0
54	0x00	0
55	0x1f	31
56	0x1d	29
57	0x00	0
58	0x46	70
59	0x35	53
60	0xab	-85
61	0xff	-1
62	0x08	8
63	0xfc	-4
64	0x1f	31
65	0xf6	-10
66	0xc5	-59
67	0x11	17
68	0xd1	-47
69	0x00	0
70	0x00	0
71	0xe1	-31
72	0x10	16
73	0x00	0
74	0x35	53
75	0xaf	-81
76	0x00	0
77	0x3d	61
78	0x87	-121
79	0xe3	-29
80	0x1d	29
81	0x83	-125
82	0x26	38
83	0x4a	74
84	0x54	84
85	0x00	0
86	0x00	0
87	0x06	6
88	0x1b	27
89	0x00	0
90	0x08	8
91	0xd5	-43
92	0xd7	-41
93	0x69	105
94	0x58	88
95	0xf6	-10
96	0x06	6
97	0xee	-18
98	0x04	4
99	0x0e	14
100	0xc6	-58
101	0x00	0
102	0x00	0
103	0xd2	-46
104	0x1a	26
105	0x00	0
106	0x0b	11
107	0x15	21
108	0x00	0
109	0xe1	-31
110	0xf1	-15
111	0x0c	12
112	0xe5	-27
113	0xe2	-30
114	0x31	49
115	0xff	-1
116	0x20	32
117	0x00	0
118	0x00	0
119	0xf6	-10
120	0x3c	60
121	0x00	0
122	0x34	52
123	0x33	51
124	0xd4	-44
125	0xfd	-3
126	0x03	3
127	0x42	66
128	0x27	39
129	0xd2	-46
130	0xec	-20
131	0xe5	-27
132	0xd9	-39
133	0x00	0
134	0x00	0
135	0x10	16
136	0xf9	-7
137	0x00	0
138	0x1c	28
139	0x0e	14
140	0x00	0
141	0xdf	-33
142	0xa8	-88
143	0xb9	-71
144	0xf4	-12
145	0xd2	-46
146	0x06	6
147	0x11	17
148	0x1f	31
149	0x00	0
150	0x00	0
151	0x0a	10
152	0xe5	-27
153	0x00	0
154	0x23	35
155	0x46	70
156	0xd0	-48
157	0x0c	12
158	0x11	17
159	0xf8	-8
160	0x01	1
161	0x30	48
162	0xea	-22
163	0xe2	-30
164	0xff	-1
165	0x00	0
166	0x00	0
167	0xce	-50
168	0xd8	-40
169	0x00	0
170	0x2d	45
171	0xdc	-36
172	0x00	0
173	0x2b	43
174	0x43	67
175	0xda	-38
176	0x2f	47
177	0xdf	-33
178	0x45	69
179	0x36	54
180	0x59	89
181	0x00	0
182	0x00	0
183	0xd2	-46
184	0x1f	31
185	0x00	0
186	0xee	-18
187	0x53	83
188	0xb4	-76
189	0x4f	79
190	0x51	81
191	0xe2	-30
192	0x0e	14
193	0x02	2
194	0xde	-34
195	0xd9	-39
196	0x2a	42
197	0x00	0
198	0x00	0
199	0x28	40
200	0x0f	15
201	0x00	0
202	0x12	18
203	0xd4	-44
204	0x00	0
205	0xf7	-9
206	0x2a	42
207	0x4e	78
208	0xe9	-23
209	0x0d	13
210	0x14	20
211	0x2c	44
212	0x1e	30
213	0x00	0
214	0x00	0
215	0xf8	-8
216	0x23	35
217	0x00	0
218	0x2b	43
219	0x62	98
220	0xf9	-7
221	0x07	7
222	0x20	32
223	0x01	1
224	0x00	0
225	0x0f	15
226	0xae	-82
227	0xd6	-42
228	0xfe	-2
229	0x00	0
230	0x00	0
231	0xf2	-14
232	0xef	-17
233	0x00	0
234	0x18	24
235	0x03	3
236	0x00	0
237	0xf2	-14
238	0xc7	-57
239	0xda	-38
240	0xea	-22
241	0x28	40
242	0x0b	11
243	0xbc	-68
244	0x34	52
245	0x00	0
246	0x00	0
247	0xf7	-9
248	0xe7	-25
249	0x00	0
250	0x3d	61
251	0x7f	127
252	0xd0	-48
253	0x45	69
254	0x1f	31
255	0xc0	-64

std.constant3 i1 [32, 3, 3, 32]
0	0xf4	-12
1	0xf1	-15
2	0x00	0
3	0x1b	27
4	0x00	0
5	0x08	8
6	0x0e	14
7	0x02	2
8	0x1d	29
9	0xd7	-41
10	0xff	-1
11	0x1b	27
12	0x02	2
13	0x06	6
14	0x00	0
15	0xf8	-8
16	0x04	4
17	0xac	-84
18	0x02	2
19	0x26	38
20	0x00	0
21	0xaf	-81
22	0x98	-104
23	0xde	-34
24	0x00	0
25	0xde	-34
26	0x7f	127
27	0x1e	30
28	0xdf	-33
29	0xdc	-36
30	0xf2	-14
31	0x00	0
32	0xec	-20
33	0xf7	-9
34	0x00	0
35	0x05	5
36	0x00	0
37	0x07	7
38	0x02	2
39	0x12	18
40	0x0b	11
41	0xed	-19
42	0xfc	-4
43	0x2d	45
44	0xfd	-3
45	0x27	39
46	0x00	0
47	0xfd	-3
48	0x04	4
49	0xf1	-15
50	0x13	19
51	0x16	22
52	0x00	0
53	0xe6	-26
54	0xd7	-41
55	0xdb	-37
56	0x00	0
57	0xe1	-31
58	0x2e	46
59	0x29	41
60	0xe6	-26
61	0xe7	-25
62	0xfe	-2
63	0x00	0
64	0xff	-1
65	0xf1	-15
66	0x00	0
67	0xfb	-5
68	0x00	0
69	0x10	16
70	0xf1	-15
71	0xeb	-21
72	0x11	17
73	0xf0	-16
74	0xfd	-3
75	0x3e	62
76	0xf1	-15
77	0x11	17
78	0x00	0
79	0xf9	-7
80	0x03	3
81	0xe9	-23
82	0x0b	11
83	0x14	20
84	0x00	0
85	0xfb	-5
86	0xe2	-30
87	0xcc	-52
88	0x00	0
89	0xe1	-31
90	0x58	88
91	0x1f	31
92	0xf1	-15
93	0xe6	-26
94	0x0b	11
95	0x00	0
96	0xf7	-9
97	0xfc	-4
98	0x00	0
99	0x10	16
100	0x00	0
101	0xfa	-6
102	0x0a	10
103	0xfe	-2
104	0xff	-1
105	0x04	4
106	0xf6	-10
107	0x13	19
108	0xf8	-8
109	0xfc	-4
110	0x00	0
111	0xf6	-10
112	0x03	3
113	0xc4	-60
114	0x02	2
115	0xfe	-2
116	0x00	0
117	0xe3	-29
118	0xd9	-39
119	0xf5	-11
120	0x00	0
121	0xd5	-43
122	0x30	48
123	0x1c	28
124	0xf2	-14
125	0x0b	11
126	0xea	-22
127	0x00	0
128	0xf1	-15
129	0x00	0
130	0x00	0
131	0x04	4
132	0x00	0
133	0xf9	-7
134	0xea	-22
135	0x11	17
136	0xf6	-10
137	0x02	2
138	0xf3	-13
139	0x24	36
140	0xf2	-14
141	0xfa	-6
142	0x00	0
143	0xfa	-6
144	0x04	4
145	0x02	2
146	0x11	17
147	0x03	3
148	0x00	0
149	0xf9	-7
150	0xf6	-10
151	0xeb	-21
152	0x00	0
153	0xd9	-39
154	0xff	-1
155	0x12	18
156	0xf3	-13
157	0xf5	-11
158	0xf4	-12
159	0x00	0
160	0xfd	-3
161	0xf3	-13
162	0x00	0
163	0xfd	-3
164	0x00	0
165	0xff	-1
166	0xfb	-5
167	0x0d	13
168	0xfb	-5
169	0xf9	-7
170	0xf5	-11
171	0x38	56
172	0xfb	-5
173	0xef	-17
174	0x00	0
175	0xf7	-9
176	0x03	3
177	0xf5	-11
178	0x0c	12
179	0x01	1
180	0x00	0
181	0x03	3
182	0xfb	-5
183	0xd1	-47
184	0x00	0
185	0xd5	-43
186	0x2c	44
187	0x14	20
188	0xee	-18
189	0xf9	-7
190	0xfc	-4
191	0x00	0
192	0xf0	-16
193	0x13	19
194	0x00	0
195	0x0e	14
196	0x00	0
197	0xf9	-7
198	0x27	39
199	0xfd	-3
200	0xf4	-12
201	0x13	19
202	0xfe	-2
203	0x00	0
204	0xf4	-12
205	0x0d	13
206	0x00	0
207	0xea	-22
208	0x04	4
209	0xd2	-46
210	0x03	3
211	0xf2	-14
212	0x00	0
213	0xd1	-47
214	0xe3	-29
215	0xf8	-8
216	0x00	0
217	0x8b	-117
218	0x57	87
219	0x09	9
220	0xe6	-26
221	0x0b	11
222	0xe5	-27
223	0x00	0
224	0xef	-17
225	0x0e	14
226	0x00	0
227	0x05	5
228	0x00	0
229	0xfc	-4
230	0x07	7
231	0x31	49
232	0xf3	-13
233	0x1b	27
234	0xfe	-2
235	0x13	19
236	0x05	5
237	0x21	33
238	0x00	0
239	0xed	-19
240	0x04	4
241	0x05	5
242	0x0f	15
243	0x0a	10
244	0x00	0
245	0xee	-18
246	0xfa	-6
247	0xfc	-4
248	0x00	0
249	0xab	-85
250	0x23	35
251	0x0a	10
252	0xe7	-25
253	0x09	9
254	0xf4	-12
255	0x00	0

std.constant4 i1 [32, 3, 3, 32]
0	0x00	0
1	0x00	0
2	0x00	0
3	0x8b	-117
4	0x00	0
5	0x00	0
6	0x00	0
7	0x00	0
8	0x00	0
9	0x00	0
10	0x00	0
11	0x00	0
12	0xfd	-3
13	0x00	0
14	0x00	0
15	0x00	0
16	0x00	0
17	0x00	0
18	0x00	0
19	0x00	0
20	0x00	0
21	0x00	0
22	0x00	0
23	0x00	0
24	0x00	0
25	0x00	0
26	0x00	0
27	0x00	0
28	0x00	0
29	0x00	0
30	0x00	0
31	0x00	0
32	0x00	0
33	0x00	0
34	0x00	0
35	0x8d	-115
36	0x00	0
37	0x00	0
38	0x00	0
39	0x00	0
40	0x00	0
41	0x00	0
42	0x00	0
43	0x00	0
44	0xfd	-3
45	0x00	0
46	0x00	0
47	0x00	0
48	0x00	0
49	0x00	0
50	0x00	0
51	0x00	0
52	0x00	0
53	0x00	0
54	0x00	0
55	0x00	0
56	0x00	0
57	0x00	0
58	0x00	0
59	0x00	0
60	0x00	0
61	0x00	0
62	0x00	0
63	0x00	0
64	0x00	0
65	0x00	0
66	0x00	0
67	0xa7	-89
68	0x00	0
69	0x00	0
70	0x00	0
71	0x00	0
72	0x00	0
73	0x00	0
74	0x00	0
75	0x00	0
76	0xfd	-3
77	0x00	0
78	0x00	0
79	0x00	0
80	0x00	0
81	0x00	0
82	0x00	0
83	0x00	0
84	0x00	0
85	0x00	0
86	0x00	0
87	0x00	0
88	0x00	0
89	0x00	0
90	0x00	0
91	0x00	0
92	0x00	0
93	0x00	0
94	0x00	0
95	0x00	0
96	0x00	0
97	0x00	0
98	0x00	0
99	0x81	-127
100	0x00	0
101	0x00	0
102	0x00	0
103	0x00	0
104	0x00	0
105	0x00	0
106	0x00	0
107	0x00	0
108	0xfc	-4
109	0x00	0
110	0x00	0
111	0x00	0
112	0x00	0
113	0x00	0
114	0x00	0
115	0x00	0
116	0x00	0
117	0x00	0
118	0x00	0
119	0x00	0
120	0x00	0
121	0x00	0
122	0x00	0
123	0x00	0
124	0x00	0
125	0x00	0
126	0x00	0
127	0x00	0
128	0x00	0
129	0x00	0
130	0x00	0
131	0x81	-127
132	0x00	0
133	0x00	0
134	0x00	0
135	0x00	0
136	0x00	0
137	0x00	0
138	0x00	0
139	0x00	0
140	0xfc	-4
141	0x00	0
142	0x00	0
143	0x00	0
144	0x00	0
145	0x00	0
146	0x00	0
147	0x00	0
148	0x00	0
149	0x00	0
150	0x00	0
151	0x00	0
152	0x00	0
153	0x00	0
154	0x00	0
155	0x00	0
156	0x00	0
157	0x00	0
158	0x00	0
159	0x00	0
160	0x00	0
161	0x00	0
162	0x00	0
163	0x96	-106
164	0x00	0
165	0x00	0
166	0x00	0
167	0x00	0
168	0x00	0
169	0x00	0
170	0x00	0
171	0x00	0
172	0xfd	-3
173	0x00	0
174	0x00	0
175	0x00	0
176	0x00	0
177	0x00	0
178	0x00	0
179	0x00	0
180	0x00	0
181	0x00	0
182	0x00	0
183	0x00	0
184	0x00	0
185	0x00	0
186	0x00	0
187	0x00	0
188	0x00	0
189	0x00	0
190	0x00	0
191	0x00	0
192	0x00	0
193	0x00	0
194	0x00	0
195	0x94	-108
196	0x00	0
197	0x00	0
198	0x00	0
199	0x00	0
200	0x00	0
201	0x00	0
202	0x00	0
203	0x00	0
204	0xfc	-4
205	0x00	0
206	0x00	0
207	0x00	0
208	0x00	0
209	0x00	0
210	0x00	0
211	0x00	0
212	0x00	0
213	0x00	0
214	0x00	0
215	0x00	0
216	0x00	0
217	0x00	0
218	0x00	0
219	0x00	0
220	0x00	0
221	0x00	0
222	0x00	0
223	0x00	0
224	0x00	0
225	0x00	0
226	0x00	0
227	0x93	-109
228	0x00	0
229	0x00	0
230	0x00	0
231	0x00	0
232	0x00	0
233	0x00	0
234	0x00	0
235	0x00	0
236	0xfc	-4
237	0x00	0
238	0x00	0
239	0x00	0
240	0x00	0
241	0x00	0
242	0x00	0
243	0x00	0
244	0x00	0
245	0x00	0
246	0x00	0
247	0x00	0
248	0x00	0
249	0x00	0
250	0x00	0
251	0x00	0
252	0x00	0
253	0x00	0
254	0x00	0
255	0x00	0

std.constant5 i1 [32, 3, 3, 64]
0	0xff	-1
1	0xf5	-11
2	0x00	0
3	0x02	2
4	0xfa	-6
5	0x06	6
6	0x03	3
7	0x00	0
8	0x02	2
9	0x03	3
10	0xf8	-8
11	0x04	4
12	0x09	9
13	0x00	0
14	0xfd	-3
15	0x06	6
16	0x00	0
17	0x02	2
18	0xff	-1
19	0x04	4
20	0xf6	-10
21	0x07	7
22	0x11	17
23	0x00	0
24	0x01	1
25	0x00	0
26	0x02	2
27	0x01	1
28	0xee	-18
29	0x0c	12
30	0x00	0
31	0x00	0
32	0x00	0
33	0xe0	-32
34	0x22	34
35	0xee	-18
36	0x10	16
37	0x00	0
38	0x00	0
39	0x00	0
40	0xe8	-24
41	0x00	0
42	0x50	80
43	0x1d	29
44	0x11	17
45	0x23	35
46	0x00	0
47	0x1d	29
48	0x3d	61
49	0x00	0
50	0x7f	127
51	0xf0	-16
52	0x00	0
53	0x31	49
54	0x20	32
55	0x14	20
56	0x21	33
57	0x00	0
58	0x6f	111
59	0x00	0
60	0xbc	-68
61	0xd5	-43
62	0x00	0
63	0x1d	29
64	0x00	0
65	0xf8	-8
66	0x05	5
67	0xf5	-11
68	0x08	8
69	0xfa	-6
70	0x03	3
71	0xfc	-4
72	0xff	-1
73	0x0e	14
74	0xfa	-6
75	0xf5	-11
76	0x02	2
77	0x04	4
78	0x04	4
79	0xfd	-3
80	0x00	0
81	0x0c	12
82	0xf7	-9
83	0x03	3
84	0xf6	-10
85	0x05	5
86	0x04	4
87	0x00	0
88	0x00	0
89	0x00	0
90	0xfe	-2
91	0x09	9
92	0xfb	-5
93	0x06	6
94	0x08	8
95	0x00	0
96	0x00	0
97	0x01	1
98	0x0d	13
99	0xfc	-4
100	0x01	1
101	0x00	0
102	0x00	0
103	0x00	0
104	0xff	-1
105	0x00	0
106	0x0b	11
107	0x02	2
108	0x02	2
109	0xff	-1
110	0x00	0
111	0x03	3
112	0xff	-1
113	0x00	0
114	0x0f	15
115	0xfb	-5
116	0x00	0
117	0xff	-1
118	0x0a	10
119	0x00	0
120	0x01	1
121	0x00	0
122	0x09	9
123	0x00	0
124	0xf5	-11
125	0xf6	-10
126	0x00	0
127	0x02	2
128	0xfd	-3
129	0x05	5
130	0x02	2
131	0xf7	-9
132	0x07	7
133	0xf7	-9
134	0xff	-1
135	0x01	1
136	0xfe	-2
137	0xfb	-5
138	0x04	4
139	0xff	-1
140	0xfe	-2
141	0x08	8
142	0x07	7
143	0xfa	-6
144	0x00	0
145	0x0e	14
146	0xfb	-5
147	0x00	0
148	0x02	2
149	0x06	6
150	0xf6	-10
151	0x00	0
152	0xfd	-3
153	0x00	0
154	0xfb	-5
155	0x11	17
156	0x0c	12
157	0x05	5
158	0x0e	14
159	0x00	0
160	0x00	0
161	0x2b	43
162	0xfc	-4
163	0xdd	-35
164	0xdc	-36
165	0x00	0
166	0x00	0
167	0x00	0
168	0x15	21
169	0x00	0
170	0x39	57
171	0xeb	-21
172	0xf3	-13
173	0xcf	-49
174	0x00	0
175	0xfe	-2
176	0xc3	-61
177	0x00	0
178	0x20	32
179	0xda	-38
180	0x00	0
181	0xc6	-58
182	0x00	0
183	0xea	-22
184	0xdd	-35
185	0x00	0
186	0xdd	-35
187	0x00	0
188	0xb5	-75
189	0x9f	-97
190	0x00	0
191	0xed	-19
192	0x00	0
193	0xff	-1
194	0x00	0
195	0x07	7
196	0xf5	-11
197	0x03	3
198	0xfb	-5
199	0xff	-1
200	0x09	9
201	0x00	0
202	0xfd	-3
203	0x01	1
204	0x09	9
205	0xfa	-6
206	0xf8	-8
207	0x08	8
208	0x00	0
209	0x0d	13
210	0x00	0
211	0x04	4
212	0xf8	-8
213	0x05	5
214	0x0b	11
215	0x00	0
216	0xff	-1
217	0x00	0
218	0x03	3
219	0xfa	-6
220	0xfc	-4
221	0x09	9
222	0xf9	-7
223	0x00	0
224	0x00	0
225	0x0b	11
226	0x22	34
227	0xfb	-5
228	0x14	20
229	0x00	0
230	0x00	0
231	0x00	0
232	0x01	1
233	0x00	0
234	0x3b	59
235	0x18	24
236	0x11	17
237	0x16	22
238	0x00	0
239	0x1e	30
240	0x1c	28
241	0x00	0
242	0x47	71
243	0x05	5
244	0x00	0
245	0x1c	28
246	0x19	25
247	0x14	20
248	0x15	21
249	0x00	0
250	0x2b	43
251	0x00	0
252	0xd2	-46
253	0xd0	-48
254	0x00	0
255	0x1d	29

std.constant6 i1 [32, 3, 3, 64]
0	0xed	-19
1	0x02	2
2	0x00	0
3	0x0f	15
4	0x00	0
5	0x0f	15
6	0xe6	-26
7	0xf0	-16
8	0x04	4
9	0x0c	12
10	0xdf	-33
11	0x28	40
12	0xfe	-2
13	0xfa	-6
14	0x00	0
15	0x18	24
16	0x05	5
17	0xf6	-10
18	0x0f	15
19	0x0d	13
20	0x00	0
21	0x02	2
22	0xdd	-35
23	0xed	-19
24	0x00	0
25	0xeb	-21
26	0x0f	15
27	0xfa	-6
28	0xf6	-10
29	0xf7	-9
30	0x03	3
31	0x00	0
32	0x13	19
33	0xde	-34
34	0x20	32
35	0xf7	-9
36	0xf8	-8
37	0xf9	-7
38	0x0d	13
39	0xf1	-15
40	0x00	0
41	0x00	0
42	0x16	22
43	0xf4	-12
44	0xee	-18
45	0xf0	-16
46	0x00	0
47	0x3d	61
48	0xd0	-48
49	0x00	0
50	0x08	8
51	0x00	0
52	0x10	16
53	0x00	0
54	0x00	0
55	0x0b	11
56	0x02	2
57	0x01	1
58	0x1c	28
59	0x00	0
60	0xe9	-23
61	0xe0	-32
62	0x0a	10
63	0xed	-19
64	0x05	5
65	0xfd	-3
66	0x00	0
67	0x07	7
68	0x00	0
69	0x0d	13
70	0x01	1
71	0xf0	-16
72	0x07	7
73	0xdd	-35
74	0xde	-34
75	0x37	55
76	0x02	2
77	0x09	9
78	0x00	0
79	0x1c	28
80	0x05	5
81	0xf7	-9
82	0x10	16
83	0xfd	-3
84	0x00	0
85	0x05	5
86	0xef	-17
87	0xed	-19
88	0x00	0
89	0xf0	-16
90	0x17	23
91	0x0e	14
92	0xf1	-15
93	0xe5	-27
94	0x09	9
95	0x00	0
96	0xf5	-11
97	0xce	-50
98	0x1a	26
99	0xf9	-7
100	0xf2	-14
101	0xf0	-16
102	0x0b	11
103	0xdc	-36
104	0x00	0
105	0x00	0
106	0xea	-22
107	0x0b	11
108	0x05	5
109	0xf4	-12
110	0x00	0
111	0x45	69
112	0xf3	-13
113	0x00	0
114	0x09	9
115	0x00	0
116	0x15	21
117	0x00	0
118	0x00	0
119	0xed	-19
120	0xe6	-26
121	0xe6	-26
122	0xf1	-15
123	0x00	0
124	0xe9	-23
125	0x02	2
126	0xfd	-3
127	0xe7	-25
128	0xf8	-8
129	0xff	-1
130	0x00	0
131	0xff	-1
132	0x00	0
133	0xfc	-4
134	0xf4	-12
135	0x08	8
136	0x0d	13
137	0xcc	-52
138	0xe1	-31
139	0x34	52
140	0xf8	-8
141	0xf4	-12
142	0x00	0
143	0x1b	27
144	0x05	5
145	0xfd	-3
146	0x0d	13
147	0xf1	-15
148	0x00	0
149	0xfd	-3
150	0xf3	-13
151	0x04	4
152	0x00	0
153	0xf3	-13
154	0x14	20
155	0x07	7
156	0x0b	11
157	0xf8	-8
158	0x06	6
159	0x00	0
160	0xf0	-16
161	0xe2	-30
162	0xf8	-8
163	0xf4	-12
164	0xfa	-6
165	0x11	17
166	0x07	7
167	0xf4	-12
168	0x00	0
169	0x00	0
170	0xec	-20
171	0xf1	-15
172	0xee	-18
173	0xf5	-11
174	0x00	0
175	0x3a	58
176	0xf0	-16
177	0x00	0
178	0x05	5
179	0x00	0
180	0x15	21
181	0x00	0
182	0x00	0
183	0xea	-22
184	0xec	-20
185	0xc5	-59
186	0xdc	-36
187	0x00	0
188	0xed	-19
189	0xfa	-6
190	0xfc	-4
191	0x00	0
192	0xf3	-13
193	0xea	-22
194	0x00	0
195	0x07	7
196	0x00	0
197	0x0d	13
198	0x0d	13
199	0x27	39
200	0x08	8
201	0xfc	-4
202	0xd1	-47
203	0x11	17
204	0x15	21
205	0x00	0
206	0x00	0
207	0x2d	45
208	0x05	5
209	0xf1	-15
210	0x1a	26
211	0x08	8
212	0x00	0
213	0xff	-1
214	0xdb	-37
215	0x1f	31
216	0x00	0
217	0xe5	-27
218	0x29	41
219	0x0a	10
220	0xfc	-4
221	0x25	37
222	0x03	3
223	0x00	0
224	0x1e	30
225	0xf3	-13
226	0x2e	46
227	0x09	9
228	0xfb	-5
229	0xee	-18
230	0x13	19
231	0xf0	-16
232	0x00	0
233	0x00	0
234	0xea	-22
235	0x0e	14
236	0xf4	-12
237	0xff	-1
238	0x00	0
239	0x45	69
240	0xe6	-26
241	0x00	0
242	0x0c	12
243	0x00	0
244	0x14	20
245	0x00	0
246	0x00	0
247	0x21	33
248	0x12	18
249	0xeb	-21
250	0x01	1
251	0x00	0
252	0xd9	-39
253	0xda	-38
254	0x0b	11
255	0xe2	-30

std.constant7 i1 [24, 3, 3, 64]
0	0xeb	-21
1	0xf5	-11
2	0xf2	-14
3	0xf6	-10
4	0x09	9
5	0x00	0
6	0x00	0
7	0x01	1
8	0xfb	-5
9	0x00	0
10	0xf4	-12
11	0xf6	-10
12	0x00	0
13	0x00	0
14	0x0f	15
15	0x02	2
16	0xfd	-3
17	0xfe	-2
18	0x06	6
19	0x09	9
20	0xfd	-3
21	0x00	0
22	0x00	0
23	0x05	5
24	0xf2	-14
25	0x00	0
26	0x02	2
27	0x02	2
28	0xf9	-7
29	0xf0	-16
30	0xfe	-2
31	0x05	5
32	0xfb	-5
33	0xb7	-73
34	0xcf	-49
35	0x0f	15
36	0xfe	-2
37	0x00	0
38	0x35	53
39	0xd0	-48
40	0x00	0
41	0xe5	-27
42	0xb1	-79
43	0x00	0
44	0xe6	-26
45	0x00	0
46	0x00	0
47	0xf5	-11
48	0x00	0
49	0x00	0
50	0x09	9
51	0x00	0
52	0x1b	27
53	0x8e	-114
54	0xf8	-8
55	0x00	0
56	0x0d	13
57	0x12	18
58	0xac	-84
59	0x19	25
60	0xed	-19
61	0x13	19
62	0xc3	-61
63	0xf1	-15
64	0xf8	-8
65	0x01	1
66	0xfc	-4
67	0xfd	-3
68	0xf8	-8
69	0x00	0
70	0x00	0
71	0x04	4
72	0xfb	-5
73	0x00	0
74	0xfe	-2
75	0xfa	-6
76	0x00	0
77	0xfa	-6
78	0x20	32
79	0xfb	-5
80	0xf5	-11
81	0xfd	-3
82	0x01	1
83	0xf7	-9
84	0xf6	-10
85	0x00	0
86	0x00	0
87	0xff	-1
88	0xe9	-23
89	0x00	0
90	0x03	3
91	0x03	3
92	0xfe	-2
93	0xee	-18
94	0xff	-1
95	0xd0	-48
96	0xfe	-2
97	0xe1	-31
98	0xe4	-28
99	0x07	7
100	0xe7	-25
101	0x00	0
102	0x25	37
103	0xcf	-49
104	0x00	0
105	0xfd	-3
106	0xd4	-44
107	0x00	0
108	0xc8	-56
109	0x00	0
110	0x00	0
111	0xed	-19
112	0x00	0
113	0x00	0
114	0xff	-1
115	0x00	0
116	0x0c	12
117	0xd3	-45
118	0xcd	-51
119	0x00	0
120	0xdf	-33
121	0xff	-1
122	0xc4	-60
123	0xf1	-15
124	0xbe	-66
125	0x13	19
126	0xda	-38
127	0xf7	-9
128	0xf2	-14
129	0x06	6
130	0xda	-38
131	0x06	6
132	0x15	21
133	0x00	0
134	0x00	0
135	0xfb	-5
136	0x0c	12
137	0x00	0
138	0xf9	-7
139	0xfd	-3
140	0x00	0
141	0xfc	-4
142	0x0f	15
143	0xf8	-8
144	0xfa	-6
145	0x05	5
146	0x06	6
147	0x00	0
148	0x01	1
149	0x00	0
150	0x00	0
151	0xfe	-2
152	0x04	4
153	0x00	0
154	0x01	1
155	0x03	3
156	0x07	7
157	0xff	-1
158	0xee	-18
159	0xfb	-5
160	0x10	16
161	0x00	0
162	0xdb	-37
163	0xf2	-14
164	0xdd	-35
165	0x00	0
166	0x1f	31
167	0xe7	-25
168	0x00	0
169	0x27	39
170	0xcf	-49
171	0x00	0
172	0xc1	-63
173	0x00	0
174	0x00	0
175	0xfc	-4
176	0x00	0
177	0x00	0
178	0x10	16
179	0x00	0
180	0xf8	-8
181	0xe7	-25
182	0x81	-127
183	0x00	0
184	0xb3	-77
185	0xe3	-29
186	0x07	7
187	0xe0	-32
188	0xa5	-91
189	0xf7	-9
190	0xf9	-7
191	0xfb	-5
192	0x03	3
193	0x06	6
194	0xf8	-8
195	0xf1	-15
196	0xf7	-9
197	0x00	0
198	0x00	0
199	0x04	4
200	0xed	-19
201	0x00	0
202	0xf7	-9
203	0xfa	-6
204	0x00	0
205	0xfa	-6
206	0x10	16
207	0xf5	-11
208	0xf5	-11
209	0xf9	-7
210	0x0e	14
211	0xfe	-2
212	0xff	-1
213	0x00	0
214	0x00	0
215	0x01	1
216	0xee	-18
217	0x00	0
218	0x02	2
219	0x01	1
220	0x01	1
221	0xfb	-5
222	0xfd	-3
223	0xda	-38
224	0xdd	-35
225	0xc5	-59
226	0xea	-22
227	0xea	-22
228	0x02	2
229	0x00	0
230	0xea	-22
231	0xed	-19
232	0x00	0
233	0xc9	-55
234	0xbf	-65
235	0x00	0
236	0xed	-19
237	0x00	0
238	0x00	0
239	0xe3	-29
240	0x00	0
241	0x00	0
242	0xf7	-9
243	0x00	0
244	0x06	6
245	0xd0	-48
246	0x23	35
247	0x00	0
248	0x06	6
249	0xfe	-2
250	0xbb	-69
251	0x06	6
252	0x09	9
253	0x10	16
254	0xd1	-47
255	0xdd	-35

;;convLayer7_bias f4 [24]
0	0x3ad46d35	0.0016206863
1	0xbc7e097c	-0.015505191
2	0xbd8c7979	-0.068591066
3	0xbb873ea2	-0.0041273395
4	0xbc12432e	-0.00892715
5	0xbcd9a837	-0.026569469
6	0xbcb223e1	-0.021745624
7	0xbb9c7316	-0.0047744615
8	0xbd17cb57	-0.037059154
9	0x39c8f675	0.00038330597
10	0x3bb8c6bf	0.0056389268
11	0xbd4241e8	-0.047426134
12	0xbcc5fd56	-0.024168652
13	0xbc7b1320	-0.015324384
14	0xbcdfcc9d	-0.027319247
15	0xbbb3d3f1	-0.005487912
16	0xbca3036f	-0.019899098
17	0xbd2e6ae6	-0.042582415
18	0xbcc9238f	-0.024553088
19	0xbc51bdc5	-0.012801592
20	0xbc9d30cb	-0.019188305
21	0xbc01cf09	-0.007922896
22	0xbc750cf9	-0.014956706
23	0xbc867eec	-0.016417943
